tasks/Train_MiniGrid-Empty-5x5-v0_DQN_20250318-162239/models/checkpoint.pt (torch, 109986 bytes, 20 tensors)

conv1.weight f4 [16, 3, 3, 3]
0.19445962 -0.09679411 -0.023615174 0.10179974 -0.16945848 0.11638043 -0.025875464 0.02542517
-0.029344317 -0.02887983 0.07207845 0.054383375 0.047687657 -0.048929863 -0.008484714 -0.0124589335
0.044255883 0.003634759 0.16823347 0.059888568 -0.071669616 -0.11623242 -0.032257646 -0.08301155
-0.061670348 0.0092148185 0.11472484 0.12512918 -0.20036894 0.12842117 0.0801268 0.16424577
0.1982246 -0.19415347 -0.17885101 -0.031743705 0.16099131 -0.04493877 0.110197976 -0.0939362
0.2252474 -0.0050984607 0.12558085 0.019979546 -0.03087115 0.0989222 -0.102156386 0.056600474
-0.05557135 -0.02109915 -0.18501922 -0.09175669 0.10442997 -0.046780244 0.10970625 0.15600394
0.02068865 -0.10450696 0.15698543 0.070377834 -0.09432794 0.024538504 0.08527582 0.17686349
-0.14370212 -0.015253308 -0.021621635 -0.019988194 -0.11875074 -0.12891144 0.12981173 -0.037490122
0.094006754 0.010971568 0.06318999 0.0423176 0.06997474 0.09539957 -0.17823035 0.096870035
-0.13531613 -0.14502043 -0.007375948 -0.031379037 0.07021637 -0.1449612 -0.14811668 0.056954935
0.021693492 0.11705933 0.07531278 -0.119240366 0.072418086 0.028260868 -0.07399081 -0.03281482
0.03208714 0.07427053 -0.0057035796 -0.058257703 0.17626171 -0.035607364 0.108501755 0.0833315
-0.12440111 -0.16366524 0.18473066 0.010049121 0.0703703 0.005902095 -0.039772335 0.13690142
0.24293223 -0.1247784 0.043725513 0.12872955 0.10610051 0.110856265 -0.18472032 -0.19878899
-0.100363836 0.01705342 0.20178345 -0.0980739 0.11542811 -0.08434117 -0.18094459 -0.040903278
0.110884145 0.17866583 -0.11951897 0.041763827 0.16605753 0.12752774 0.119939335 0.18018046
0.166035 0.016729213 -0.14465697 -0.1714593 -0.10229076 -0.020641776 -0.0980878 0.08614293
0.049087286 -0.048513673 0.06786504 0.07358228 0.08526738 0.15560657 -0.05369337 0.17679071
-0.043201856 -0.006611815 -0.1816498 -0.123863995 -0.11243001 -0.08231532 0.13682616 -0.06288904
-0.14381434 0.07404515 0.041488152 0.14575537 -0.062449723 -0.014858282 -0.0779061 -0.07310695
-0.20742603 -0.13730294 -0.100333326 0.04233057 -0.02034986 0.073868245 0.12770718 0.15794775
0.06912504 -0.034123432 -0.16386129 0.12781233 -0.048124727 -0.015558696 -0.16579555 -0.038014397
-0.12412796 0.17684354 -0.16637716 -0.15001152 -0.006534891 -0.066014275 0.10224092 -0.030002141
-0.08308129 0.034920443 0.12157742 -0.13013944 0.060210142 0.1230646 0.21364194 -0.15953171
0.08675517 -0.16095847 0.1282173 -0.05290554 0.11322398 -0.0231709 0.025603084 -0.0061406586
0.03271545 0.09072022 0.030865123 0.058707844 -0.17311361 0.1402071 0.1677903 0.15908036
0.040845938 -0.15135351 -0.06539739 0.17080553 -0.09778416 0.051547576 -0.16282153 -0.12078352
0.07417793 -0.2031099 -0.059987035 0.15103102 0.1290449 0.18575506 -0.0275386 -0.15377668
0.1784788 -0.0401361 -0.079180725 0.046914294 -0.13458507 0.12649363 0.12061477 -0.15270554
-0.15807319 -0.016857939 0.08083394 -0.0074522267 -0.09718814 0.0484826 -0.19987956 -0.06503471
-0.16856174 0.06877833 0.14378043 -0.09964288 -0.0010975568 0.09218217 -0.045479648 -0.11952119
00000000: 6c20 473e fe3b c6bd 9c74 c1bc 627c d03d
00000010: 8686 2dbe dd58 ee3d c8f8 d3bc 7248 d03c
00000020: 7e63 f0bc 6595 ecbc de9d 933d 1ac1 5e3d
00000030: 2254 433d ae6a 48bd 7803 0bbc 8e20 4cbc
00000040: a845 353d 2335 6e3b 6545 2c3e b74d 753d
00000050: 85c7 92bd 430b eebd 9820 04bd f601 aabd
00000060: 0c9a 7cbd c0f9 163c dbf4 ea3d dd21 003e
00000070: 842d 4dbe d780 033e 8519 a43d 0b30 283e
00000080: 64fb 4a3e 2bd0 46be b824 37be b005 02bd
00000090: e8da 243e b711 38bd 7aaf e13d 9f61 c0bd
000000a0: 41a7 663e fd10 a7bb 4498 003e 25ac a33c
000000b0: 7ee5 fcbc b997 ca3d 5e37 d1bd e6d5 673d
000000c0: c99e 63bd 20d8 acbc ae75 3dbe eeea bbbd
000000d0: 61df d53d a49c 3fbd acad e03d 7fbf 1f3e
000000e0: 3e7b a93c bf07 d6bd cac0 203e 4122 903d
000000f0: 022f c1bd f904 c93c 17a5 ae3d b41b 353e
00000100: a626 13be 03e9 79bc db1f b1bc 48be a3bc
00000110: 9733 f3bd 5c01 04be 5eed 043e 3e8f 19bd
00000120: 9d86 c03d 17c2 333c c169 813d 3855 2d3d
00000130: eb4e 8f3d da60 c33d 0482 36be cc63 c63d
00000140: 5090 0abe 3c80 14be f0b1 f1bb 4e87 00bd
00000150: 9acd 8f3d b570 14be e6ab 17be 9449 693d
00000160: 8db6 b13c cdbc ef3d 963d 9a3d 4b34 f4bd
00000170: ef4f 943d 5683 e73c 7e88 97bd d568 06bd
00000180: ce6d 033d 261b 983d 18e5 babb a19f 6ebd
00000190: f37d 343e 07d9 11bd 2b36 de3d b5a9 aa3d
000001a0: 02c6 febd dc97 27be 092a 3d3e 12a5 243c
000001b0: 4e1e 903d 5d66 c13b 51e8 22bd e32f 0c3e
000001c0: 3ac3 783e d18b ffbd 8619 333d aed1 033e
000001d0: 394b d93d 9c08 e33d 5327 3dbe 578f 4bbe
000001e0: 8e8b cdbd 9db3 8b3c 52a0 4e3e f8da c8bd
000001f0: 9365 ec3d 10bb acbd 8a49 39be 328a 27bd
00000200: 3a17 e33d 2df4 363e 5dc6 f4bd 8c10 2b3d
00000210: fc0a 2a3e a296 023e c1a2 f53d 3a81 383e
00000220: 1405 2a3e b40b 893c f520 14be 0793 2fbe
00000230: d17d d1bd f118 a9bc 42e2 c8bd b46b b03d
00000240: c00f 493d 46b6 46bd d3fc 8a3d 4eb2 963d
00000250: aaa0 ae3d 5457 1f3e 94ed 5bbd a008 353e
00000260: 6ef4 30bd eda7 d8bb 6802 3abe 68ac fdbd
00000270: b541 e6bd ef94 a8bd 281c 0c3e f8cb 80bd
00000280: 1144 13be fca4 973d 7bef 293d e540 153e
00000290: 48cb 7fbd 2770 73bc 3c8d 9fbd 19b9 95bd
000002a0: 7d67 54be 2499 0cbe 8f7b cdbd d262 2d3d
000002b0: c0b4 a6bc 3c48 973d acc5 023e 0ebd 213e
000002c0: 6e91 8d3d 03c5 0bbd 41cb 27be 3ce1 023e
000002d0: 6f1e 45bd e7e9 7ebc 4fc6 29be fcb4 1bbd
000002e0: cd36 febd 7916 353e c65e 2abe 9f9c 19be
000002f0: a422 d6bb 7e32 87bd b063 d13d 0dc7 f5bc
00000300: 8626 aabd bd08 0f3d 95fd f83d 4643 05be
00000310: e99e 763d 4b09 fc3d f4c4 5a3e 485c 23be
00000320: b2ac b13d 4cd2 24be 654b 033e 7bb3 58bd
00000330: f9e1 e73d e6d0 bdbc 8fbd d13c 9437 c9bb
00000340: a300 063d 86cb b93d dbd8 fc3c a377 703d
00000350: b244 31be 7392 0f3e 38d1 2b3e f6e5 223e
00000360: 124e 273d 6afc 1abe 11ef 85bd a5e7 2e3e
00000370: 1043 c8bd 8d23 533d b0ba 26be 5a5d f7bd
00000380: 99ea 973d 0bfc 4fbe f7b4 75bd e0a7 1a3e
00000390: 5924 043e 9336 3e3e a198 e1bc a277 1dbe
000003a0: 26c3 363e c065 24bd 8129 a2bd 3429 403d
000003b0: abd0 09be 8c87 013e e004 f73d d75e 1cbe
000003c0: f0dd 21be a919 8abc 448c a53d cf31 f4bb
000003d0: 930a c7bd b195 463d 3aad 4cbe eb30 85bd
000003e0: 739b 2cbe a7db 8c3d 2d3b 133e 9111 ccbd
000003f0: e5db 8fba 01ca bc3d de48 3abd 87c7 f4bd

conv1.bias f4 [16]
0.029878568 0.061374385 0.09089362 -0.16534305 0.12329393 -0.024873931 0.08739936 0.10185426
-0.19764127 0.23323686 -0.17212325 0.069978856 0.075045265 0.09982769 -0.10633898 0.100807525
00000000: e6c3 f43c b563 7b3d 6f26 ba3d b04f 29be
00000010: 8781 fc3d 6ac4 cbbc 70fe b23d f798 d03d
00000020: 7962 4abe a5d5 6e3e 1441 30be 1351 8f3d
00000030: 55b1 993d 7672 cc3d 40c8 d9bd 2d74 ce3d

bn1.weight f4 [16]
0.9948543 1.0073105 0.9569909 0.9612029 0.9694376 1.026307 1.0224338 1.0171186
0.9509011 0.948998 1.055838 1.0733476 0.9461997 0.9999501 1.0556642 1.001822
00000000: c5ae 7e3f 8def 803f 5bfd 743f 6511 763f
00000010: 102d 783f 075e 833f 1cdf 823f f130 823f
00000020: 416e 733f 88f1 723f b325 873f 7463 893f
00000030: 253a 723f bbfc 7f3f 0120 873f b43b 803f

bn1.bias f4 [16]
-0.031820096 -0.03759018 -0.07723415 -0.071621135 -0.081893556 -0.028153826 -0.041003205 -0.010056704
-0.0312751 -0.08463669 0.10091442 0.028912704 0.009558322 -0.006619078 -0.031778883 0.031548835
00000000: ca55 02bd 29f8 19bd f02c 9ebd 1aae 92bd
00000010: cfb7 a7bd daa2 e6bc faf2 27bd e0c4 24bc
00000020: 521a 00bd 0056 adbd 38ac ce3d 56da ec3c
00000030: 829a 1c3c dae4 d8bb 932a 02bd 5a39 013d

bn1.running_mean f4 [16]
0.030872405 0.06669331 0.0840657 -0.16868222 0.1205243 -0.019292854 0.092487976 0.10632354
-0.19596288 0.22819315 -0.18274204 0.06845307 0.06806545 0.0988977 -0.10382923 0.093496345
00000000: 20e8 fc3c 8196 883d a32a ac3d 08bb 2cbe
00000010: 72d5 f63d 0c0c 9ebc 566a bd3d 28c0 d93d
00000020: 7eaa 48be 77ab 693e bb20 3bbe 2031 8c3d
00000030: e665 8b3d e18a ca3d 6ba4 d4bd 037b bf3d

bn1.running_var f4 [16]
2.0713971e-06 9.583714e-06 3.6673455e-06 3.8513067e-06 6.960219e-06 7.093421e-06 9.118645e-06 3.0907488e-06
9.329784e-06 6.993486e-06 9.859791e-06 6.6259126e-06 6.241837e-06 1.1713491e-05 1.3427579e-05 8.084405e-06
00000000: 5502 0b36 bdc9 2037 841c 7636 793a 8136
00000010: d38b e936 0604 ee36 48fc 1837 a96a 4f36
00000020: 1e87 1c37 96a9 ea36 7b6b 2537 2854 de36
00000030: f970 d136 1085 4437 0347 6137 41a2 0737

conv2.weight f4 [32, 16, 3, 3]
0.009350215 -0.097308345 0.019630592 0.036969356 0.098236725 -0.044030856 0.037977908 0.072028495
-0.0038827953 -0.07197743 0.047446214 -0.09071805 0.12368007 -0.06649995 0.0097147785 0.082353115
-0.09013955 0.0998731 -0.07813556 0.0025139856 -0.013276969 -0.040007528 -0.0671748 -0.070546955
0.06565875 0.04788079 0.037929542 0.07845512 -0.051522568 0.058853246 -0.009861205 -0.09244799
-0.0024291694 -0.039153475 -0.039633404 -0.014722327 0.07538256 -0.08815139 -0.10548471 0.088890076
0.034879677 0.017238498 0.021850523 -0.06416979 0.060685717 -0.04443611 0.02506459 0.017189214
0.09142463 -0.041104212 -0.077101834 0.075087614 -0.061860587 -0.08462331 -0.088487335 -0.036666613
-0.050220303 -0.06767911 -0.032208752 -0.05653977 -0.0029611036 -0.079643354 -0.13623899 0.053336527
-0.059647392 0.051289883 0.1377104 -0.09303449 -0.058483273 -0.017819626 -0.08764566 0.0128383925
-0.049199153 -0.15026146 0.05652592 -0.008228405 -0.057561554 -0.041966014 0.0141363265 0.0031535
-0.13331604 -0.019412976 0.009509858 -0.0035742498 0.059463847 0.05255843 -0.027073385 -0.081366435
0.073900245 -0.0043894765 -0.07310663 0.044142265 -0.01309478 -0.07691891 -0.025739737 -0.017537544
-0.11093082 0.038237777 -0.1157677 0.05960919 -0.04990637 -0.00050610694 -0.032869983 -0.04852779
0.03156025 -0.12005848 -0.07167475 -0.026788265 0.053593155 -0.066722885 -0.03990258 -0.09194488
-0.061864648 -0.056371864 -0.034293897 -0.0489701 -0.0122611 0.0033989728 -0.067047626 -0.123733126
0.016403373 -0.0068811798 0.0495121 0.0095259305 -0.106120266 -0.08923706 -0.02555272 -0.04550554
0.014159309 0.0074321413 0.076119184 0.07501704 0.098418154 0.0758191 -0.07075117 0.1498791
0.07632095 0.02794783 -0.09083034 0.10781805 0.036417626 0.0275307 -0.029313307 0.04587575
0.06410592 0.05471852 -0.042977802 0.10241559 -0.008916016 -0.09470455 0.11350229 0.10564855
0.038179606 -0.002608269 0.08844234 -0.06508274 -0.09660478 -0.12245387 -0.06489519 0.012002893
0.02112499 0.073578894 0.019230543 -0.021738233 -0.121829234 -0.029123902 0.0034785569 -0.002112163
-0.028467398 0.004193849 0.061578453 0.019683134 -0.003197208 -0.021899097 0.07364964 0.04523066
0.062166534 0.10407977 -0.024314664 0.031833492 -0.14702886 -0.0090252515 -0.017293168 -0.025576869
0.007960723 -0.021286743 -0.05804194 -0.05447779 -0.0220158 -0.0055783833 -0.088428564 -0.08260749
-0.023019727 -0.10291103 0.064860806 0.040565923 -0.0198566 -0.0041190637 -0.0620009 0.036737315
-0.070554666 -0.0401472 -0.16059723 0.04882176 -0.14644729 -0.14862895 -0.04937387 -0.084677316
-0.0692475 -0.102815 -0.04524665 0.04240429 -0.12438782 0.054199085 0.06732672 -0.0814438
-0.016156822 -0.0865533 -0.03136918 -0.09760592 -0.07690843 -0.06361072 -0.042340674 -0.024028433
-0.08319943 0.0038045468 -0.074779026 0.09800141 -0.040660318 -0.14418073 0.07439657 -0.003571657
0.019948348 0.06505186 0.02577785 0.005078656 0.019716894 -0.076853484 -0.012191978 -0.059623003
-0.13275397 -0.16384247 -0.05882326 -0.13209018 -0.06241586 -0.0013381067 -0.08851263 -0.123268485
-0.015071559 -0.025520472 0.02204272 0.053645868 -0.107458286 -0.051479254 -0.033569485 0.05631987
00000000: a531 193c 9949 c7bd 56d0 a03c 2e6d 173d
00000010: 5630 c93d b359 34bd b98e 1b3d ad83 933d
00000020: 7f76 7ebb e768 93bd f656 423d 63ca b9bd
00000030: fa4b fd3d 2031 88bd bc2a 1f3c c0a8 a83d
00000040: 169b b8bd 458a cc3d 8905 a0bd aec1 243b
00000050: a587 59bc efde 23bd f192 89bd ec7a 90bd
00000060: 1878 863d a61e 443d 025c 1b3d 14ad a03d
00000070: 5409 53bd 1a10 713d e490 21bc 5f55 bdbd
00000080: b332 1fbb 655f 20bd a356 22bd ea35 71bc
00000090: 2c62 9a3d b788 b4bd 5e08 d8bd 000c b63d
000000a0: fedd 0e3d c037 8d3c deff b23c 736b 83bd
000000b0: 9691 783d a302 36bd 4154 cd3c 65d0 8c3c
000000c0: d63c bb3d e45c 28bd 91e7 9dbd 89c7 993d
000000d0: 8761 7dbd fc4e adbd d938 b5bd bb2f 16bd
000000e0: ceb3 4dbd 589b 8abd 53ed 03bd 3f96 67bd
000000f0: 130f 42bb 0e1c a3bd 3c82 0bbe 6777 5a3d
00000100: d350 74bd 5715 523d f503 0d3e de88 bebd
00000110: 288c 6fbd 77fa 91bc 917f b3bd 1f58 523c
00000120: 0d85 49bd 24de 19be b987 673d 6fd0 06bc
00000130: aac5 6bbd 8ee4 2bbd 0d9c 673c f3aa 4e3b
00000140: 0084 08be f607 9fbc 3ccf 1b3c f63d 6abb
00000150: 5d90 733d 8247 573d 01c9 ddbc 72a3 a6bd
00000160: 0359 973d 99d5 8fbb eeb8 95bd 85ce 343d
00000170: 7d8b 56bc a987 9dbd 24dc d2bc e5aa 8fbc
00000180: b32f e3bd 379f 1c3d 9e17 edbd c428 743d
00000190: 9f6a 4cbd 43ac 04ba ada2 06bd 13c5 46bd
000001a0: 5245 013d 38e1 f5bd 36ca 92bd 1073 dbbc
000001b0: 7f84 5b3d 02a6 88bd e370 23bd 994d bcbd
000001c0: c965 7dbd 2fe6 66bd c277 0cbd df94 48bd
000001d0: c8e2 48bc 4dc1 5e3b 4450 89bd cb67 fdbd
000001e0: 5e60 863c 857b e1bb 33cd 4a3d a612 1c3c
000001f0: 9555 d9bd ebc1 b6bd f053 d1bc 0464 3abd
00000200: 72fc 673c 5289 f33b 60e4 9b3d 89a2 993d
00000210: 758f c93d 0b47 9b3d fde5 90bd e879 193e
00000220: 294e 9c3d d9f2 e43c 4205 babd b6cf dc3d
00000230: a62a 153d 1088 e13c 7622 f0bc 36e8 3b3d
00000240: f749 833d 8720 603d 7e09 30bd 44bf d13d
00000250: 7b14 12bc 76f4 c1bd e373 e83d 445e d83d
00000260: 3862 1c3d 7eef 2abb 4221 b53d 194a 85bd
00000270: bad8 c5bd 18c9 fabd c5e7 84bd c8a7 443c
00000280: 510e ad3c 88b0 963d 5f89 9d3c 6114 b2bc
00000290: 9b81 f9bd 4095 eebc 80f8 633b 376c 0abb
000002a0: 7634 e9bc 8e6c 893b b039 7c3d 863e a13c
000002b0: 4088 51bb bc65 b3bc 9fd5 963d c943 393d
000002c0: 56a2 7e3d c627 d53d 8c2f c7bc d663 023d
000002d0: bc8e 16be a6de 13bc 67aa 8dbc 9586 d1bc
000002e0: b16d 023c 8961 aebc 63bd 6dbd 1a24 5fbd
000002f0: 7b5a b4bc dfca b6bb 091a b5bd 1e2e a9bd
00000300: de93 bcbc 05c3 d2bd bed5 843d 7428 263d
00000310: 4faa a2bc 36f9 86bb a8f4 7dbd de79 163d
00000320: f77e 90bd 6471 24bd 9a73 24be 53f9 473d
00000330: 47f6 15be 3032 18be 413c 4abd 4d6b adbd
00000340: a2d1 8dbd ac90 d2bd 8d54 39bd 1fb0 2d3d
00000350: 0bbf febd dcff 5d3d 97e2 893d 02cc a6bd
00000360: 505b 84bc db42 b1bd f87c 00bd 9de5 c7bd
00000370: 2b82 9dbd 5646 82bd 6a6d 2dbd 47d7 c4bc
00000380: 7664 aabd b455 793b bf25 99bd f7b4 c83d
00000390: 6f8b 26bd 1da4 13be 3b5d 983d 7612 6abb
000003a0: b86a a33c e939 853d 122c d33c db6a a63b
000003b0: 5385 a13c 5c65 9dbd ddc0 47bc 4037 74bd
000003c0: a8f0 07be 52c6 27be a9f0 70bd a642 07be
000003d0: c6a7 7fbd 6963 afba 1c46 b5bd 3074 fcbd
000003e0: b3ee 76bc 4f10 d1bc ef92 b43c c5bb 5b3d
000003f0: 1713 dcbd e9db 52bd 2880 09bd aaaf 663d

conv2.bias f4 [32]
0.067669 0.10334974 -0.047484703 0.119399816 0.05059935 -0.0018139186 -0.0019128629 -0.032614034
-0.11604925 -0.055644 0.003706924 0.06616927 0.0042750705 -0.051521543 0.074199244 -0.0057898285
0.044601288 -0.024475502 0.0067205206 0.06687034 -0.042246316 -0.031924203 0.015641576 -0.00853421
0.05589422 0.07118185 0.05312704 -0.008756442 -0.10416932 -0.038440272 -0.058970902 -0.046229593
00000000: 0b96 8a3d 07a9 d33d 527f 42bd e487 f43d
00000010: 4441 4f3d 02c1 edba 07b9 faba 4b96 05bd
00000020: 3bab edbd f7ea 63bd ddef 723b c183 873d
00000030: e415 8c3b 4108 53bd c6f5 973d 9ab8 bdbb
00000040: d7af 363d d980 c8bc d037 dc3b 51f3 883d
00000050: 790a 2dbd f4c2 02bd c322 803c 12d3 0bbc
00000060: 56f1 643d cac7 913d bd9b 593d 2e77 0fbc
00000070: b956 d5bd 8c73 1dbd 798b 71bd 3e5b 3dbd

bn2.weight f4 [32]
0.996128 1.0023581 1.0228832 1.0112507 1.0045346 0.9935376 1.0429728 1.068852
0.92004746 0.96972334 1.0210799 1.0182761 0.9531928 0.99457294 0.984139 1.0261788
0.9369896 1.0313007 0.8946131 1.0640273 0.9692253 0.999849 1.0031947 1.0219628
1.0054072 1.0056161 0.9714385 0.9905072 1.0349691 0.99130285 1.0089308 1.0029334
00000000: 3f02 7f3f 454d 803f d6ed 823f aa70 813f
00000010: 9794 803f 7b58 7e3f 2280 853f 24d0 883f
00000020: 3b88 6b3f ca3f 783f bfb2 823f df56 823f
00000030: 7104 743f 559c 7e3f 89f0 7b3f d459 833f
00000040: 8dde 6f3f a901 843f 5d05 653f 0c32 883f
00000050: 261f 783f 1bf6 7f3f af68 803f adcf 823f
00000060: 2fb1 803f 07b8 803f 32b0 783f e191 7d3f
00000070: de79 843f 06c6 7d3f a524 813f 1f60 803f

bn2.bias f4 [32]
0.010490225 0.019536285 0.019282972 0.03195156 0.027212294 0.004234109 -0.011570074 0.04936107
-0.08234477 -0.012817378 -0.006274949 0.030953456 -0.14874114 0.002625302 0.03580876 0.015789988
-0.018200113 0.0037655097 -0.1370177 -0.006846664 0.024118286 -0.028628215 -0.00958132 -0.019553022
-0.048463218 -0.026736915 -0.062257525 -0.005352896 -0.0077113523 0.0049413336 0.0112146875 0.0061213905
00000000: 31df 2b3c 8f0a a03c 53f7 9d3c a4df 023d
00000010: 51ec de3c 48be 8a3b 6890 3dbc d52e 4a3d
00000020: 60a4 a8bd fbff 51bc 169e cdbb 1a92 fd3c
00000030: 994f 18be 420d 2c3b 35ac 123d 015a 813c
00000040: 6718 95bc c5c6 763b 5e4e 0cbe fb59 e0bb
00000050: b693 c53c b885 eabc f8fa 1cbc a92d a0bc
00000060: 5e81 46bd 6007 dbbc bf01 7fbd 5967 afbb
00000070: 83af fcbb e9ea a13b cfbd 373c f295 c83b

bn2.running_mean f4 [32]
-0.25026372 -0.5109707 0.008571751 0.043550525 0.20921287 0.06184329 0.063920714 -0.029094672
-0.24393234 -0.11938427 -0.0927735 -0.18061323 -0.26108804 -0.26417187 -0.45225027 -0.09762991
-0.24825327 -0.41879287 0.10515004 -0.04411262 -0.21966715 -0.4896982 -0.1275904 -0.19995809
0.019560853 0.042594366 -0.1603048 -0.09957155 -0.125296 0.084744565 -0.2118878 0.07039309
00000000: 9122 80be face 02bf 8870 0c3c 0962 323d
00000010: e63b 563e 644f 7d3d dde8 823d f357 eebc
00000020: 66c9 79be bd7f f4bd 0800 bebd adf2 38be
00000030: 55ad 85be 8941 87be 598d e7be 31f2 c7bd
00000040: 1b36 7ebe 056c d6be e758 d73d 6faf 34bd
00000050: 6df0 60be b9b9 fabe 0fa7 02be d0c1 4cbe
00000060: 153e a03c 6e77 2e3d f126 24be 2bec cbbd
00000070: 984d 00be 8f8e ad3d 1ef9 58be 412a 903d

bn2.running_var f4 [32]
0.094679005 0.2855682 0.21137367 0.065448985 0.1745421 0.13654634 0.13388397 0.099716835
0.20003486 0.22343712 0.11877273 0.115113646 0.079944655 0.11671785 0.10205874 0.105311565
0.13763146 0.06329942 0.10966374 0.067446 0.1241575 0.11938674 0.18858019 0.098547064
0.1604228 0.08002618 0.21589068 0.10953753 0.41164947 0.1114704 0.07359492 0.14176326
00000000: 11e7 c13d ff35 923e 5772 583e 1e0a 863d
00000010: 2abb 323e ced2 0b3e e118 093e 5738 cc3d
00000020: f0d5 4c3e b3cc 643e 1e3f f33d b4c0 eb3d
00000030: 06ba a33d c509 ef3d 2c04 d13d 97ad d73d
00000040: 43ef 0c3e 20a3 813d 6297 e03d 2121 8a3d
00000050: 4a46 fe3d 0981 f43d 2a1b 413e 0bd3 c93d
00000060: e045 243e c4e4 a33d 7212 5d3e 3655 e03d
00000070: b8c3 d23e 984a e43d efb8 963d 632a 113e

conv3.weight f4 [32, 32, 3, 3]
-0.024608143 0.01347517 0.089150414 0.07053943 0.036070425 -0.05846813 -0.0072323317 0.030945398
0.03628713 0.008759228 -0.05209925 -0.089431785 -0.0018260848 0.08354918 -0.04281332 0.0059840577
-0.0070999684 -0.02618788 0.06221263 0.030339098 0.05217765 0.045827538 0.11085308 0.045330107
0.009263956 0.07570678 0.006875357 0.08847877 0.07685328 0.11553957 -0.068379804 -0.055882253
-0.041659348 -0.012155261 -0.009138225 -0.069277726 -0.075037986 0.05179053 0.058600157 -0.017903082
0.026410734 0.06567348 0.001974995 -0.014163356 -0.061570894 0.026493844 -0.0729062 -0.06849249
0.07096755 0.11032663 0.09062387 0.018569726 0.07076495 -0.062027022 -0.021706343 0.14337423
-0.0035492762 0.026837513 0.004354488 -0.030904572 -0.01030705 -0.0017384199 0.0039666006 -0.06901907
-0.044942874 0.03845341 0.07297182 -0.06591152 -0.13115497 -0.020795269 -0.08173448 -0.026215443
-0.0035039284 0.023849173 0.06804009 0.016659498 -0.019871905 -0.027699163 0.024385894 -0.06753726
-0.020269796 -0.08375659 -0.031195471 -0.029243775 0.0074275243 -0.08220805 0.029692128 0.06535199
-0.04311469 -0.015377969 -0.033062983 0.00861463 -0.0040803947 -0.073988445 0.046276312 0.045432054
-0.056059755 0.0033955155 -0.07833989 -0.020910287 0.13278063 0.032543674 0.11352983 0.08703692
0.032228302 0.049935654 0.0077151386 0.0044748085 -0.032357085 -0.067513 0.0679329 0.008341495
0.023889547 0.014064985 -0.03276416 0.03995938 -0.028332785 -0.06096133 -0.022112394 0.090223156
-0.02395073 0.021054303 0.057140127 0.021008795 -0.004918643 -0.04527549 0.011615318 -0.034502562
-0.07182539 -0.0031900273 0.030618092 0.008623303 -0.021920864 0.019823836 -0.0072952383 -0.005316332
-0.100149594 0.04520932 -0.07358679 0.05038557 0.006571887 0.0085481135 0.12568977 -0.005181074
-0.1015526 -0.052486837 -0.10212084 -0.004351137 -0.072242536 0.09339689 0.090658896 -0.06430423
-0.010657358 0.03525462 0.035823442 0.13928235 0.07507969 -0.004491488 -0.0047841915 -0.012551341
0.012741425 0.02536311 -0.025007159 -0.019993708 -0.060442373 -0.074526995 0.026701218 0.019287905
-0.07806469 -0.045025945 0.027484205 -0.008681927 0.012066447 0.07188418 0.050552674 -0.033865128
-0.091011785 -0.088032395 -0.049220353 -0.05328023 -0.109644644 -0.029959142 -0.054004215 -0.015178828
-0.056949057 0.04893167 -0.023553593 -0.03975471 -0.034634277 -0.017958466 -0.03801759 0.04416698
0.020061633 0.019937111 0.01369659 0.0024342674 0.046277657 -0.06272065 0.024853656 0.0066840774
-0.09301967 0.0075505283 0.0009640812 -0.06854507 -0.018580938 -0.0059875655 -0.02142802 0.013053274
-0.057907317 0.059942454 -0.038315468 0.019513406 0.008789193 -0.08592111 0.054440953 0.055796806
0.0055088345 -0.042138234 0.067782626 0.042573623 0.056125328 -0.023320366 0.0030187927 0.062338084
0.011717884 0.08222425 -0.08659755 -0.12447396 0.01635446 0.10406082 0.033209994 0.05266307
0.099873595 0.010841054 -0.056525815 -0.05435704 -0.022930847 0.0050663142 0.046364665 -0.006860317
-0.04998882 0.09035019 0.013795806 -0.018606788 -0.03243416 0.086816706 -0.032872166 -0.011896707
-0.01323592 0.01045381 -0.039803393 -0.04177767 -0.06199555 -0.05343503 0.031219756 -0.0362593
00000000: 0497 c9bc f6c6 5c3c 7e94 b63d fa76 903d
00000010: 95be 133d 477c 6fbd 32fd ecbb 3481 fd3c
00000020: d0a1 143d dd82 0f3c 0666 55bd 0328 b7bd
00000030: 3d59 efba d51b ab3d 055d 2fbd ea15 c43b
00000040: daa6 e8bb f787 d6bc acd2 7e3d b389 f83c
00000050: 3bb8 553d a8b5 3b3d f106 e33d 10ac 393d
00000060: d9c7 173c 280c 9b3d ad4a e13b 5b34 b53d
00000070: 4165 9d3d 03a0 ec3d b60a 8cbd cae4 64bd
00000080: fea2 2abd dc26 47bc 7eb8 15bc 7be1 8dbd
00000090: 84ad 99bd 4f22 543d b806 703d 7ca9 92bc
000000a0: 535b d83c d17f 863d eb6e 013b 6c0d 68bc
000000b0: c331 7cbd 9e09 d93c d94f 95bd ca45 8cbd
000000c0: 6f57 913d eef2 e13d 0299 b93d 8a1f 983c
000000d0: 37ed 903d 0c10 7ebd 80d1 b1bc b2d0 123e
000000e0: f99a 68bb 58da db3c 18b0 8e3b 962b fdbc
000000f0: e7de 28bc b1db e3ba 42fa 813b df59 8dbd
00000100: 0516 38bd 5381 1d3d 4072 953d 9efc 86bd
00000110: 7d4d 06be d75a aabc 6864 a7bd c5c1 d6bc
00000120: 2aa2 65bb 575f c33c 9a58 8b3d 8079 883c
00000130: 68ca a2bc 5be9 e2bc edc4 c73c fa50 8abd
00000140: d80c a6bc 9388 abbd a58d ffbc a490 efbc
00000150: 9762 f33b b25c a8bd e83c f33c 44d7 853d
00000160: 0799 30bd e0f3 7bbc 0d6d 07bd 6124 0d3c
00000170: d5b4 85bb 4187 97bd 3b8c 3d3d f616 3a3d
00000180: ea9e 65bd 4c87 5e3b aa70 a0bd 0d4c abbc
00000190: a5f7 073e 844c 053d 5482 e83d 6a40 b23d
000001a0: d301 043d 5489 4c3d 46cf fc3b 6aa1 923b
000001b0: dd88 04bd 4144 8abd 6720 8b3d c4aa 083c
000001c0: 03b4 c33c d370 663c b633 06bd 72ac 233d
000001d0: 281a e8bc 96b2 79bd 0d25 b5bc ebc6 b83d
000001e0: 5234 c4bc 137a ac3c c40b 6a3d a31a ac3c
000001f0: 912c a1bb cb72 39bd 2d4e 3e3c 8f52 0dbd
00000200: 3119 93bd c70f 51bb cbd2 fa3c c148 0d3c
00000210: 6293 b3bc 9965 a23c e50c efbb a034 aebb
00000220: 3b1b cdbd 682d 393d acb4 96bd 1961 4e3d
00000230: fc58 d73b 630d 0c3c d2b4 003e 00c6 a9bb
00000240: cffa cfbd 70fc 56bd bb24 d1bd fc93 8ebb
00000250: e5f3 93bd de46 bf3d 5fab b93d f0b1 83bd
00000260: 339c 2ebc 2667 103d 9abb 123d 08a0 0e3e
00000270: 61c3 993d 552d 93bb b5c4 9cbb 24a4 4dbc
00000280: 69c1 503c 4cc6 cf3c d0db ccbc d8c9 a3bc
00000290: 6c92 77bd 9ca1 98bd 83bc da3c ab01 9e3c
000002a0: 61e0 9fbd 206d 38bd 8e26 e13c a43e 0ebc
000002b0: 59b2 453c 0338 933d 5210 4f3d 29b6 0abd
000002c0: 6364 babd 544a b4bd 489b 49bd 5f3c 5abd
000002d0: 5f8d e0bd e06c f5bc 8633 5dbd 9eb0 78bc
000002e0: 6a43 69bd 936c 483d 77f3 c0bc d6d5 22bd
000002f0: acdc 0dbd a21d 93bc 55b8 1bbd 6fe8 343d
00000300: 4b58 a43c 2753 a33c aa67 603c 3b88 1f3b
00000310: a48d 3d3d af73 80bd e599 cb3c 1b06 db3b
00000320: 1981 bebd 6c6a f73b 65ba 7c3a 5c61 8cbd
00000330: 0d37 98bc 5733 c4bb d189 afbc 66dd 553c
00000340: 3930 6dbd 3886 753d aef0 1cbd 94da 9f3c
00000350: 8c00 103c 68f7 afbd 7afd 5e3d 318b 643d
00000360: 7483 b43b 2499 2cbd 9ed1 8a3d ae61 2e3d
00000370: ace3 653d 5a0a bfbc f0d6 453b 3856 7f3d
00000380: 5efc 3f3c 3065 a83d 0e5a b1bd 34ec febd
00000390: caf9 853c d71d d53d 3407 083d 3bb5 573d
000003a0: 878a cc3d ad9e 313c 9d87 67bd 7da5 5ebd
000003b0: 79d9 bbbc 5303 a63b e0e8 3d3d 83cc e0bb
000003c0: 14c1 4cbd 8509 b93d ce07 623c 436d 98bc
000003d0: afd9 04bd f5cc b13d f7a4 06bd 68ea 42bc
000003e0: 79db 58bc 7546 2b3c e208 23bd 101f 2bbd
000003f0: 0cef 7dbd b1de 5abd 93c0 ff3c a284 14bd

conv3.bias f4 [32]
0.073866986 0.0740565 0.010290949 -0.15238988 0.067648366 -0.07451808 0.10168704 0.060549412
0.14403799 0.10013811 0.18203822 0.07482624 -0.13898934 0.033221263 0.05736503 0.054965556
0.16051593 0.05231418 0.12845151 0.010125159 0.0338839 0.029378321 0.08038252 0.069564
0.029441554 -0.0023512468 -0.03488018 -0.054680012 0.14022134 0.046959817 -0.01873602 0.13125032
00000000: 9347 973d efaa 973d 5e9b 283c 180c 1cbe
00000010: 3a8b 8a3d ef9c 98bd 4b41 d03d a902 783d
00000020: b27e 133e 3615 cd3d 3a68 3a3e 803e 993d
00000030: 3953 0ebe 0513 083d 98f7 6a3d 9023 613d
00000040: 4a5e 243e 6547 563d cb88 033e ffe3 253c
00000050: d8c9 0a3d ceaa f03c 979f a43d 9277 8e3d
00000060: 6a2f f13c 6017 1abb 85de 0ebd 26f8 5fbd
00000070: 2f96 0f3e f058 403d 487c 99bc 7c66 063e

bn3.weight f4 [32]
1.2043909 1.1705056 1.1843814 1.1833587 1.1805146 1.1832424 1.1907549 1.1838609
1.1840615 1.1805197 1.1802335 1.1911653 1.1806396 1.2061843 1.1904315 1.1826835
1.1929082 1.1845771 1.1843419 1.1768322 1.1900644 1.1846309 1.1965852 1.1820081
1.19677 1.1904588 1.1830925 1.1901462 1.1965206 1.195466 1.1866716 1.1755499
00000000: 7b29 9a3f 21d3 953f cf99 973f 4c78 973f
00000010: 1a1b 973f 7d74 973f a86a 983f c188 973f
00000020: 548f 973f 451b 973f e411 973f 1b78 983f
00000030: 331f 973f 3f64 9a3f 0f60 983f 2c62 973f
00000040: 37b1 983f 39a0 973f 8498 973f 70a2 963f
00000050: 0854 983f fca1 973f b429 993f 0b4c 973f
00000060: c22f 993f f460 983f 936f 973f b656 983f
00000070: 9627 993f 0805 993f dbe4 973f 6b78 963f

bn3.bias f4 [32]
0.19751635 0.17002025 0.17857197 0.18488757 0.18856134 0.18109506 0.18806821 0.18352576
0.18731734 0.18743803 0.18259196 0.18751699 0.18661262 0.19305749 0.18783972 0.18832089
0.19200976 0.17876352 0.18111561 0.17920177 0.18879762 0.17428823 0.18650517 0.18131669
0.17968737 0.19245647 0.18266214 0.19089124 0.19382785 0.1832064 0.18875527 0.15786958
00000000: ba41 4a3e ca19 2e3e 92db 363e 2b53 3d3e
00000010: 3916 413e fc70 393e f494 403e 2dee 3b3e
00000020: 1ed0 3f3e c1ef 3f3e 63f9 3a3e 7404 403e
00000030: 6117 3f3e ddb0 453e 0e59 403e 31d7 403e
00000040: 359e 443e c90d 373e 5f76 393e ab80 373e
00000050: 2a54 413e 9d78 323e 36fb 3e3e 15ab 393e
00000060: f7ff 373e 4f13 453e c90b 3b3e fe78 433e
00000070: cf7a 463e 759a 3b3e 1049 413e 90a8 213e

bn3.running_mean f4 [32]
0.053517986 -0.27164587 0.5699918 0.9496514 -0.26883957 0.6364784 -0.25000224 -0.17402935
-1.103262 -0.7938124 -0.29658735 -0.06958506 0.5689628 0.06676729 0.016739907 -0.53009474
-0.21034999 -0.18556193 -0.25424844 0.1720659 0.23149729 0.10327056 -0.1710073 -0.7354131
-0.33976927 0.047148436 0.26125062 0.16504543 -1.0915852 -0.54502463 0.14148697 -0.17173365
00000000: ad35 5b3d 2b15 8bbe fcea 113f 5b1c 733f
00000010: 57a5 89be 40f0 223f 4b00 80be c034 32be
00000020: b037 8dbf 4a37 4bbf 4cda 97be 9d82 8ebd
00000030: 8ca7 113f 4abd 883d 2122 893c 4ab4 07bf
00000040: fd65 57be f203 3ebe da2c 82be 0b32 303e
00000050: a00d 6d3e 847f d33d 8a1c 2fbe 0844 3cbf
00000060: 3df6 adbe b81e 413d a4c2 853e ab01 293e
00000070: 10b9 8bbf bc86 0bbf f6e1 103e f2da 2fbe

bn3.running_var f4 [32]
0.37477824 0.71338075 1.467178 1.4907604 2.3058722 1.1537157 1.0579549 1.0473095
1.061595 1.311362 1.6714959 0.853332 1.2909102 1.9626187 1.1820848 1.2276267
0.7018203 1.6184149 1.221532 1.5576583 0.6583302 1.5108273 1.0831957 0.93425626
0.7696038 1.0993237 1.1924584 1.1248795 0.9337443 0.98415756 0.8496994 1.4520208
00000000: efe2 bf3e 1fa0 363f 7dcc bb3f 3dd1 be3f
00000010: 6993 1340 f5ac 933f 116b 873f 3d0e 863f
00000020: 58e2 873f b6da a73f 94f3 d53f f773 5a3f
00000030: 8c3c a53f 1737 fb3f 8e4e 973f df22 9d3f
00000040: 7faa 333f 3828 cf3f 295b 9c3f 5961 c73f
00000050: 5488 283f ca62 c13f 28a6 8a3f 6b2b 6f3f
00000060: c104 453f a4b6 8c3f 7aa2 983f 0dfc 8f3f
00000070: de09 6f3f c0f1 7b3f e685 593f d1db b93f

head.weight f4 [7, 1568]
0.021278875 0.1429599 0.033150475 0.028200531 0.060411774 0.10090494 0.2195212 0.016812025
0.007046176 0.01693478 0.09273348 0.13391113 0.15126604 0.21828505 0.14068803 0.07833399
0.045315854 0.11604716 0.14743783 0.14915417 0.11719271 0.15047309 0.15169263 0.08298983
0.14319585 0.1305288 0.105206035 0.15789601 0.114691995 0.036332995 -0.0434198 0.0740734
0.110251665 0.07817474 0.115218684 0.1459925 0.08754679 0.037850305 0.20803578 0.14103039
0.16603734 0.121016 0.187334 0.17253648 0.055252455 0.08151707 0.046329983 0.12881722
0.049232326 0.027259042 -0.02445994 0.08374882 0.05229373 0.06702303 0.11344454 0.10742153
0.045664143 -0.016786363 0.0006951615 0.061386615 0.09946667 0.16199724 0.14023675 0.01591857
0.13642733 0.09741022 0.09852409 0.17258206 0.17776658 0.18666357 -0.010965768 0.17060122
0.122515716 0.11238765 0.12528683 0.07713581 0.1361816 -0.007928793 0.11643037 0.088990614
0.03996534 0.07750126 0.056858715 0.1072873 -0.008913825 0.089767545 0.09236089 0.04416093
0.025312291 -0.0032635934 0.050369967 0.15641186 0.13464372 0.14777254 0.18031834 0.17125161
0.087755084 0.14362742 -0.01630723 -0.01258109 0.017331708 -0.040387213 -0.024371725 0.011617832
0.050591175 0.030193778 0.035743266 0.07171878 0.120463245 0.094296165 0.18169078 0.18982922
0.035583004 0.16088992 0.10176318 0.1503181 0.07916742 0.10418557 0.14410673 0.011621537
0.027929118 -0.016692817 0.06515648 0.03893123 0.102268286 0.15742785 0.008441503 0.0010836223
0.03752207 0.004619796 -0.06169808 0.024797954 0.09374362 0.059636626 0.04585897 0.08930557
0.094493225 0.14507847 0.13283236 0.14439224 0.030701725 0.0228511 0.019609213 -0.028517513
-0.03434422 0.031985655 0.08715154 0.049118407 0.19152024 0.03138568 0.049608577 0.04292635
0.010263883 0.013544807 0.07303547 0.15759593 0.16867569 0.17989369 0.13316044 0.1089184
0.043711215 0.05628749 0.18265095 0.17541464 0.1359944 0.06901465 0.09531488 0.08417482
0.0067323055 0.18833536 0.15653591 0.13458486 0.15424219 0.16969977 0.016588029 -0.0009064216
0.14633814 0.16881938 0.081383936 0.12182009 0.089785516 0.09158774 0.02493836 0.15552776
0.1740098 0.12887572 0.088454075 0.11322339 0.033320088 0.015357598 0.030459834 0.037499886
-0.016460732 0.014832162 -0.057965722 0.0040841075 0.18306309 0.19561554 0.15091342 0.15784203
0.15334594 0.14662176 0.15137215 0.16831848 0.07294902 -0.009081667 0.019136017 0.024604227
0.035478815 0.00078394916 0.18361011 0.16080587 0.008392415 0.050779168 -0.010881476 0.03242053
0.027853776 0.1815071 0.12956682 0.032730542 0.012522517 0.009193091 0.06433469 0.03286773
0.17404164 0.194098 0.06831982 0.012710266 0.0024010935 0.022863813 0.023004139 0.15801273
0.17431445 0.05461299 0.019810405 0.03522034 -0.0026093856 -0.03677012 0.20016785 0.076906405
0.01383824 -0.01939916 -0.012839092 0.02776927 0.017954811 -0.009891612 0.16957518 0.16593537
0.11574947 0.14691882 0.14589338 0.12951928 -0.010605556 0.17082375 0.19069618 0.15508662
00000000: 0951 ae3c 1464 123e cbc8 073d cd04 e73c
00000010: 5672 773d 40a7 ce3d 2aca 603e 5fb9 893c
00000020: 9ce3 e63b cfba 8a3c 0deb bd3d 0020 093e
00000030: 7ce5 1a3e 1e86 5f3e 8610 103e 926d a03d
00000040: 1e9d 393d 22aa ed3d f1f9 163e dfbb 183e
00000050: bb02 f03d 9e15 1a3e 5055 1b3e 92f6 a93d
00000060: efa1 123e 57a9 053e 4376 d73d 7eaf 213e
00000070: a3e3 ea3d e8d1 143d f6d8 31bd cbb3 973d
00000080: a0cb e13d 141a a03d c6f7 eb3d 0f7f 153e
00000090: bb4b b33d ec08 1b3d 5507 553e 456a 103e
000000a0: b105 2a3e 3dd7 f73d 7cd4 3f3e 67ad 303e
000000b0: 6650 623d 6cf2 a63d 82c4 3d3d a9e8 033e
000000c0: d6a7 493d 5b4e df3c 3660 c8bc 8084 ab3d
000000d0: f331 563d 5f43 893d 9c55 e83d d2ff db3d
000000e0: 530a 3b3d 8e83 89bc 803b 363a 8870 7b3d
000000f0: 2eb5 cb3d 9be2 253e 399a 0f3e a967 823c
00000100: 9bb3 0b3e 027f c73d 00c7 c93d 5ab9 303e
00000110: 7108 363e bc24 3f3e c4a9 33bc 16b2 2e3e
00000120: 85e9 fa3d 7f2b e63d 314b 003e 61f9 9d3d
00000130: 3073 0b3e c5e7 01bc 0c73 ee3d b640 b63d
00000140: b2b2 233d fbb8 9e3d afe4 683d 72b9 db3d
00000150: 4b0b 12bc 0cd8 b73d b527 bd3d 17e2 343d
00000160: b95b cf3c 03e2 55bb bd50 4e3d 6e2a 203e
00000170: 0be0 093e af51 173e 5fa5 383e 955c 2f3e
00000180: f0b8 b33d 1113 133e bd96 85bc eb20 4ebc
00000190: 3afb 8d3c 106d 25bd 36a7 c7bc b858 3e3c
000001a0: b138 4f3d f158 f73c 8867 123d 4ce1 923d
000001b0: 6fb5 f63d 591e c13d 260d 3a3e 9762 423e
000001c0: 7cbf 113d 54c0 243e 3769 d03d fdec 193e
000001d0: 8722 a23d 3e5f d53d b790 133e 4268 3e3c
000001e0: 9bcb e43c 60bf 88bc c370 853d 5a76 1f3d
000001f0: 0972 d13d c434 213e 3b4e 0a3c 5508 8e3a
00000200: beb0 193d a861 973b 20b7 7cbd 1425 cb3c
00000210: a8fc bf3d 8945 743d 9ed6 3b3d d7e5 b63d
00000220: aa85 c13d 738f 143e 3505 083e 8fdb 133e
00000230: 2f82 fb3c 3b32 bb3c 80a3 a03c 8f9d e9bc
00000240: 86ac 0cbd 6403 033d 827c b23d 6230 493d
00000250: e21d 443e 458e 003d 5d32 4b3d 8ad3 2f3d
00000260: d829 283c 0aeb 5d3c 9f93 953d d460 213e
00000270: 52b9 2c3e 0d36 383e 365b 083e 9c10 df3d
00000280: 880a 333d b68d 663d da08 3b3e e59f 333e
00000290: 1e42 0b3e 8e57 8d3d 7334 c33d d963 ac3d
000002a0: ac9a dc3b fcda 403e f34a 203e 9dd0 093e
000002b0: aaf1 1d3e c7c5 2d3e 9ee3 873c ed9c 6dba
000002c0: aad9 153e fdde 2c3e 9fac a63d d07c f93d
000002d0: 78e1 b73d 5a92 bb3d 884b cc3c ab42 1f3e
000002e0: a02f 323e fff7 033e 6927 b53d aae1 e73d
000002f0: a57a 083d 6f9e 7b3c e786 f93c 7b99 193d
00000300: a8d8 86bc 9902 733c 776d 6dbd fad3 853b
00000310: e474 3b3e 714f 483e 0c89 1a3e 57a1 213e
00000320: b806 1d3e 0424 163e 4d01 1b3e ae5b 2c3e
00000330: 4c66 953d 46cb 14bc 23c3 9c3c ce8e c93c
00000340: 3c52 113d f081 4d3a 4a04 3c3e 4baa 243e
00000350: 5780 093c d1fd 4f3d 3848 32bc 64cb 043d
00000360: 9a2d e43c ffdc 393e 2aad 043e 7610 063d
00000370: 3e2b 4d3c 9e9e 163c e8c1 833d 50a0 063d
00000380: f937 323e a0c1 463e 43eb 8b3d b83e 503c
00000390: aa5b 1d3b e44c bb3c 2d73 bc3c 17ce 213e
000003a0: 7d7f 323e dfb1 5f3d 6e49 a23c 3443 103d
000003b0: 3a02 2bbb 449c 16bd cdf8 4c3e 1b81 9d3d
000003c0: c9b9 623c fdea 9ebc 0e5b 52bc 617c e33c
000003d0: f815 933c 6e10 22bc 1ea5 2d3e f6ea 293e
000003e0: 0f0e ed3d e371 163e 1365 153e b4a0 043e
000003f0: edc2 2dbc 6cec 2e3e dc45 433e 07cf 1e3e

head.bias f4 [7]
0.18395227 0.17098062 0.09639545 0.16371669 0.15338835 0.15575854 0.1346365
00000000: fc5d 3c3e 8b15 2f3e fa6a c53d 59a5 273e
00000010: d611 1d3e 2b7f 1f3e 27de 093e
